…
    assert 4.755115509033203 < 1e-05
D:\Structual Causal Invariant (SCI)\tests\test_integration.py:316: AssertionError: Structural encoder sees response tokens (diff=4.755116)
E   RuntimeError: mat1 and mat2 shapes cannot be multiplied (16x512 and 2048x2048)
D:\Structual Causal Invariant (SCI)\venv\Lib\site-packages\torch\nn\modules\linear.py:125: RuntimeError: mat1 and mat2 shapes cannot be multiplied (16x512 and 2048x2048)
E   AssertionError: Slot queries not found in slot attention module
    assert False
     +  where False = hasattr(SlotAttention(\n  num_slots=8, d_model=512, num_iterations=3\n  (norm_inputs): LayerNorm((512,), eps=1e-05, elementwise_affine=True)\n  (norm_slots): LayerNorm((512,), eps=1e-05, elementwise_affine=True)\n  (to_q): Linear(in_features=512, out_features=512, bias=False)\n  (to_k): Linear(in_features=512, out_features=512, bias=False)\n  (to_v): Linear(in_features=512, out_features=512, bias=False)\n  (gru): GRUCell(512, 512)\n  (mlp): Sequential(\n    (0): Linear(in_features=512, out_features=512, bias=True)\n    (1): ReLU()\n    (2): Linear(in_features=512, out_features=512, bias=True)\n  )\n  (norm_mlp): LayerNorm((512,), eps=1e-05, elementwise_affine=True)\n), 'slot_queries')
     +    where SlotAttention(\n  num_slots=8, d_model=512, num_iterations=3\n  (norm_inputs): LayerNorm((512,), eps=1e-05, elementwise_affine=True)\n  (norm_slots): LayerNorm((512,), eps=1e-05, elementwise_affine=True)\n  (to_q): Linear(in_features=512, out_features=512, bias=False)\n  (to_k): Linear(in_features=512, out_features=512, bias=False)\n  (to_v): Linear(in_features=512, out_features=512, bias=False)\n  (gru): GRUCell(512, 512)\n  (mlp): Sequential(\n    (0): Linear(in_features=512, out_features=512, bias=True)\n    (1): ReLU()\n    (2): Linear(in_features=512, out_features=512, bias=True)\n  )\n  (norm_mlp): LayerNorm((512,), eps=1e-05, elementwise_affine=True)\n) = StructuralEncoder(\n  (pos_encoding): RotaryPositionalEncoding(d_model=512, max_length=512, base=10000)\n  (input_projection): Linear(in_features=512, out_features=512, bias=True)\n  (layers): ModuleList(\n    (0-11): 12 x TransformerEncoderLayer(\n      (self_attn): MultiheadAttention(\n        (out_proj): NonDynamicallyQuantizableLinear(in_features=512, out_features=512, bias=True)\n      )\n      (linear1): Linear(in_features=512, out_features=2048, bias=True)\n      (dropout): Dropout(p=0.1, inplace=False)\n      (linear2): Linear(in_features=2048, out_features=512, bias=True)\n      (norm1): LayerNorm((512,), eps=1e-05, elementwise_affine=True)\n      (norm2): LayerNorm((512,), eps=1e-05, elementwise_affine=True)\n      (dropout1): Dropout(p=0.1, inplace=False)\n      (dropout2): Dropout(p=0.1, inplace=False)\n    )\n  )\n  (abstraction_layers): ModuleDict(\n    (3): AbstractionLayer(\n      d_model=512, hidden_dim=1024, residual_gate=0.1000\n      (structural_detector): Sequential(\n        (0): Linear(in_features=512, out_features=1024, bias=True)\n        (1): GELU(approximate='none')\n        (2): Dropout(p=0.1, inplace=False)\n        (3): Linear(in_features=1024, out_features=512, bias=True)\n        (4): Sigmoid()\n      )\n      (layer_norm): LayerNorm((512,), eps=1e-05, elementwise_affine=True)\n      (dropout): Dropout(p=0.1, inplace=False)\n    )\n    (6): AbstractionLayer(\n      d_model=512, hidden_dim=1024, residual_gate=0.1000\n      (structural_detector): Sequential(\n        (0): Linear(in_features=512, out_features=1024, bias=True)\n        (1): GELU(approximate='none')\n        (2): Dropout(p=0.1, inplace=False)\n        (3): Linear(in_features=1024, out_features=512, bias=True)\n        (4): Sigmoid()\n      )\n      (layer_norm): LayerNorm((512,), eps=1e-05, elementwise_affine=True)\n      (dropout): Dropout(p=0.1, inplace=False)\n    )\n    (9): AbstractionLayer(\n      d_model=512, hidden_dim=1024, residual_gate=0.1000\n      (structural_detector): Sequential(\n        (0): Linear(in_features=512, out_features=1024, bias=True)\n        (1): GELU(approximate='none')\n        (2): Dropout(p=0.1, inplace=False)\n        (3): Linear(in_features=1024, out_features=512, bias=True)\n        (4): Sigmoid()\n      )\n      (layer_norm): LayerNorm((512,), eps=1e-05, elementwise_affine=True)\n      (dropout): Dropout(p=0.1, inplace=False)\n    )\n  )\n  (slot_attention): SlotAttention(\n    num_slots=8, d_model=512, num_iterations=3\n    (norm_inputs): LayerNorm((512,), eps=1e-05, elementwise_affine=True)\n    (norm_slots): LayerNorm((512,), eps=1e-05, elementwise_affine=True)\n    (to_q): Linear(in_features=512, out_features=512, bias=False)\n    (to_k): Linear(in_features=512, out_features=512, bias=False)\n    (to_v): Linear(in_features=512, out_features=512, bias=False)\n    (gru): GRUCell(512, 512)\n    (mlp): Sequential(\n      (0): Linear(in_features=512, out_features=512, bias=True)\n      (1): ReLU()\n      (2): Linear(in_features=512, out_features=512, bias=True)\n    )\n    (norm_mlp): LayerNorm((512,), eps=1e-05, elementwise_affine=True)\n  )\n  (final_norm): LayerNorm((512,), eps=1e-05, elementwise_affine=True)\n  (embedding): Embedding(32000, 512)\n).slot_attention
D:\Structual Causal Invariant (SCI)\tests\test_structural_encoder.py:121: AssertionError: Slot queries not found in slot attention module
E   AssertionError: Structural representations differ by 4.185554 despite same instruction. This suggests structural encoder is attending to response tokens!
    assert 4.185553550720215 < 0.001
D:\Structual Causal Invariant (SCI)\tests\test_structural_encoder.py:184: AssertionError: Structural representations differ by 4.185554 despite same instruction. This suggests structural encoder is attending to response tokens!
…
